ml/models/energy_model.pt (torch, 620185 bytes, 12 tensors)

lstm.weight_ih_l0 f4 [512, 4]
00000000: 66fd 083d 1a84 b2bd cf1e cdbb 775e 73bd
00000010: 23a8 c13c 6bfe 2d3d 7963 213c 8a5d fe3c
00000020: 839f 0c3c 24d7 993c 3904 9a3d 4924 c6bc
00000030: 8cf2 713d b5e1 083d 6b20 233d 29c3 143d
00000040: 6162 b13d 500e a7bc 43f3 4e3c 455f 83bd
00000050: fcc2 df3d 06fd 383d baab 95bc 88c9 a53d
00000060: 2eab 57bc 8d41 973d 866f b13b 8c8a 9e3d
00000070: fd8e 78bd 452c 95bc f008 063c a579 c03d
00000080: bc68 c43d 7aab 3bbd 440a eebc e4bb e83c
00000090: 6848 ac3d 7ac1 95bc 431a 66bd b262 19bd
000000a0: f911 253d 3851 9c3d a30d 83bd d9fd 08bd
000000b0: 39b7 1cbd d89d 8f3d 9a88 233c 8dea a03d
000000c0: 5b0d fabc 092f ccbd 0ab9 debd 9c93 65bc
000000d0: 9994 1ebd 36f0 ad3d 20df 7d3d a018 8dbc
000000e0: 308c 2dbd ed05 9bbc c8f6 ddbb ab32 2d3c
000000f0: 5e5e 09bc 4070 6a3d e112 cc3c 2576 3cbd
00000100: fda3 35bd 6833 3b3c 49a1 903d 2043 343d
00000110: b90e 753d d387 d8bc 0665 c33c 5e62 943d
00000120: 9dda c43d a09d bd3c f4ff 363d 0813 b23c
00000130: a37b 883d eca4 1a3d e7db a63d d43b ea3c
00000140: cfa9 15bd 5797 733d b863 adbc aede 863d
00000150: cac4 b0bc 43b5 6a3b 0ed3 acbd 9765 9b3d
00000160: c949 babd a4bb e2bc 138b 7b3d eba2 793d
00000170: bcb1 5fbd c1a5 3c3d 821c c73c 24fe f33d
00000180: 20cc b63d a1a1 853d d09c b93d 1f80 a63d
00000190: d290 063e a4ba 0b3e fec3 133d 8d58 693c
000001a0: 7fe9 a23d dbd8 8f3c 4e0b babc b1ce ad3c
000001b0: 6832 cebc c826 25bd 1b18 923d ebf3 3e3d
000001c0: 3b5b 12bc 9386 a33d 3eef 5dbd 0101 5f3d
000001d0: f1fc 29bd ace4 353d 93ea 73bc e361 183d
000001e0: 0476 b0bc 3699 be3d b544 e3bc 6e1e 0ebc
000001f0: 2597 7b3c ca95 b63c c016 06ba b2f3 76bd
00000200: 2494 523d 738e 903d 2600 d83c 29a4 f23c
00000210: f651 033e 4d10 803d cb05 b93d 5131 4b3b
00000220: 101e 2cbd 6267 c03d c18f a5bc 2f31 c0bd
00000230: 4f8e a03d e73c 0dbd a5e4 60bd 49e3 073e
00000240: 5f4b cdbc a281 a1bd 4840 3d3d 92f2 d4bb
00000250: 4eaf c73c 4c9d 8ebc e8d3 a3bd aa8b 023d
00000260: 5348 903c 57b1 f83c 659e 32bd ca1e c23d
00000270: f7b1 3b3d e096 dd3d 9e05 433c eaf9 6f3c
00000280: 9b35 1fbd 0d79 d0bc f9c8 2a3d 7319 263e
00000290: 0686 1a3c bc0c 923c 8ec3 c6bc 9fdb 82bd
000002a0: 70c8 093d 1725 043d 105c 93bd 98fe b5bc
000002b0: e0fa 4e3d d5c6 1b3e 09a6 e7bc 92a8 0e3d
000002c0: e8e3 35bd 820a a7bc d9da 69bc a680 b6bd
000002d0: ffe1 c43d 6b68 e33c d01b 88bc 050a 5d3c
000002e0: 92e5 8a3d 99cb c63b 3edf cabc 7fee 80bd
000002f0: bd0b 3abc aa57 06bc 07eb 98bc 9809 ea3d
00000300: 3a9c 7c3c 8083 b5bd 6f11 a9bd d0bf 81bd
00000310: 7065 c73d a8fd 9c3d 251b f73c f8fb 673d
00000320: 4c6f 823d 0f0e 873b cb79 c93c de96 853d
00000330: 6c91 5f3d 938a 5e3d e28a 3bbc f5b2 b33d
00000340: 382f b43b 86b8 a13d f82a aabc f1a6 003d
00000350: d12f 5bbd c75e 6f3c c967 5bbd dde4 07be
00000360: 0321 8f3d 4080 c2bc 83f0 a9bd ac99 cabc
00000370: 8eeb 7f3c ced7 54bd c1e7 b5bd 9f77 043e
00000380: be6e 1bbd bc38 c4bc 6b27 c4bd 07e7 34bd
00000390: 9daf b5bc e0b5 493d 61e1 563d d80d e3bc
000003a0: ee6c e039 c52d e63d bedd cbbc 5158 9f3d
000003b0: f7ee 7bbc 606c 92bb 51b6 b5bd e710 843c
000003c0: 69be 5d3d 03ba 0abd 58cd 7d3d 4ddc 64bc
000003d0: 731f ac3d 7409 003d cda9 1fbd ec66 983c
000003e0: b2ff 9e3d e892 e43d 4f3f a53d 445b b7bc
000003f0: d18e 6e3d 0142 663d f089 60bd 8f0a 8c3d
0.033444785 -0.087166026 -0.006259776 -0.05941626 0.023639744 0.04247896 0.009850376 0.031050462
0.008582952 0.018779345 0.07520337 -0.024187224 0.0590692 0.033418376 0.039825838 0.03631893
0.086613424 -0.020392567 0.01263124 -0.064146556 0.10925862 0.045163177 -0.018270362 0.0809508
-0.013163371 0.0738555 0.005414906 0.077412695 -0.06068324 -0.018209586 0.008180842 0.09398202
0.09590289 -0.04581783 -0.02905763 0.028409906 0.08412248 -0.018280733 -0.05617739 -0.03744764
0.040300343 0.07632679 -0.063990854 -0.033445213 -0.038260672 0.07012528 0.009981299 0.07857237
-0.030523947 -0.09969909 -0.10875137 -0.014012244 -0.038715933 0.08493082 0.061980367 -0.017223656
-0.04237002 -0.018923724 -0.0067738034 0.010571162 -0.008384315 0.057235956 0.024911346 -0.04601111
-0.044345845 0.01142583 0.07062013 0.044009328 0.059828494 -0.026431954 0.023851883 0.072453246
0.0961201 0.02314645 0.04467769 0.02173759 0.06664207 0.037754938 0.08147412 0.028592981
-0.036538895 0.0594705 -0.021165714 0.065854415 -0.021578211 0.0035813607 -0.08438693 0.07587736
-0.09096105 -0.027677365 0.06141193 0.060946386 -0.05461286 0.046056513 0.024305586 0.11913708
0.089256525 0.06524969 0.09063113 0.08129906 0.13141182 0.13645416 0.036075585 0.014242304
0.07954692 0.01755946 -0.022710469 0.021216722 -0.02517052 -0.040320188 0.07133504 0.046619337
-0.008932884 0.07984652 -0.054183237 0.054444317 -0.04150099 0.04440753 -0.01488747 0.037202727
-0.02154065 0.093065664 -0.027742723 -0.008674247 0.01535586 0.022288222 -0.00051150844 -0.060291
0.05141081 0.0705842 0.026367258 0.029619293 0.12824234 0.06253109 0.09034308 0.0031004737
-0.042020857 0.09394719 -0.020210149 -0.09384381 0.07839643 -0.03448191 -0.054905552 0.13270296
-0.025060354 -0.078860536 0.04620388 -0.006498643 0.024375584 -0.01740899 -0.07999402 0.031871475
0.017612612 0.030358 -0.043608088 0.09478529 0.045824017 0.10819793 0.011903195 0.0146469865
-0.03886948 -0.025448347 0.04169557 0.16220646 0.009431368 0.017828338 -0.02426317 -0.06389546
0.033638418 0.032261934 -0.07195294 -0.022216126 0.05053222 0.15212567 -0.028277414 0.03482873
-0.0444068 -0.020390753 -0.014273369 -0.089112565 0.09613418 0.027759751 -0.016614825 0.013491158
0.06782068 0.006066751 -0.024764653 -0.062954895 -0.011355338 -0.008199612 -0.018666757 0.11427611
0.015418107 -0.08862972 -0.08255278 -0.063354135 0.097361445 0.076655686 0.03016431 0.05663678
0.063688844 0.004121549 0.024594208 0.06522916 0.054582044 0.054331373 -0.011446686 0.08774368
0.005498793 0.07896523 -0.020772442 0.031409208 -0.0535124 0.014609999 -0.053565774 -0.13270898
0.06988718 -0.023742795 -0.08297827 -0.02473148 0.015620125 -0.05196362 -0.08882094 0.12936257
-0.03794741 -0.023952834 -0.09577831 -0.044165637 -0.022178466 0.049245715 0.05246103 -0.027716562
0.00042805768 0.112391986 -0.024886008 0.07780517 -0.015376798 -0.0044684857 -0.08872665 0.01612134
0.054136667 -0.0338688 0.06196341 -0.013968539 0.08404436 0.031259015 -0.038980294 0.018603764
0.07763614 0.11160833 0.08068716 -0.022382386 0.05824167 0.05621529 -0.054819047 0.068379514

lstm.weight_hh_l0 f4 [512, 128]
00000000: 900e 20bd 6045 b4bd 34b7 26bd 291a cc3d
00000010: e7d3 243b f3f9 a33d 68b2 863d d203 583d
00000020: dd7d cbbd 447d cf3c 87bd c6bc 46eb 70bd
00000030: f2a5 ccbc 72a7 39bd 2654 b4bd cdd3 883d
00000040: eed2 963d 07e7 92bd dd74 8f3b 7c49 d5bc
00000050: 5f6a 83bd e35c 5abd ce2c e3bd 214c 403d
00000060: 2179 5abd 58df cabc ef6d 613c 6925 27bd
00000070: 5b74 493d 1629 8fbd 546c 53bd e102 a2bd
00000080: 570d 82bd 1333 6fbd 8c2b 92bc 0416 463d
00000090: f8ff 92bc e5ca a03d 6ea0 373d 3f5c 9fbd
000000a0: fb4d 05bd 2cf6 17bc fb15 c73d b696 0cbd
000000b0: b7f8 453d 733f 42bd c02a dbbc dbbf 29bd
000000c0: 2a00 83bd fa5a a93d a3e6 cfbc 2726 373d
000000d0: 4341 32bc 0053 523d 8401 2d3d c589 9cbd
000000e0: 5161 96bd 8baf 0bbd 542a b2bd 57e6 46bd
000000f0: eaa7 0f3d 2572 1b3d 1f57 27bd 59e6 d93d
00000100: 2c6a 67bb 3f02 f9bc ae96 353d 025b 153d
00000110: 7182 c43d bba7 723d d50a 68bc 8f51 e83c
00000120: ea1e d23c 3cb9 573c 5164 51bd 4fe1 9abd
00000130: 3cfe a8bc 3430 b7bb 4511 823c df11 d33c
00000140: c384 963a 8eeb fe3b a8e9 643d 6a9e c4bc
00000150: 4318 e13d 7f94 ecbd 2004 793b 1e38 643d
00000160: d81c 32bd 67aa f83d 5900 09bd 3808 d5bb
00000170: ae76 1f3d 1b12 c03d b4eb c93b f47e f7bd
00000180: 80cd 91bd 0162 9f3d fe7e 743d 7f23 56b8
00000190: ee39 c13d a31c 513b 54e0 ff3c 69b2 4fbd
000001a0: 0b34 333d a109 44bd 8258 56bd e466 133b
000001b0: c03d 9e3a 614d 59bd 8b6a 70bd 554b ddbd
000001c0: 51ff 88bd 1e7f 61bd 7faf b0bc 7815 b13d
000001d0: a1b9 25bd ec58 2d3d a113 a73c 8a59 95bd
000001e0: 6732 48bc 3ffe 893d 9dda 3fbd 96a9 333d
000001f0: 6127 61bc c592 993d 18d2 31bd 354d 3b3c
00000200: b69e 76bd 8cac 54bd 5313 503d c63e 8bbc
00000210: a702 70bb 47cd 4bbd b559 62bd 8fc4 39bd
00000220: 119e 0e3c dcbc 9a3c 65a1 6dbd 0907 9abd
00000230: 5af2 1bbd 3705 c93c a98c 883c cbf9 7e3d
00000240: 4043 ffbc ca2f 1cbd 9b1d 98bd e7cf e3bc
00000250: 00d4 8f3c d369 613d 42f3 003c 6ff2 8a3c
00000260: 4439 05bd f499 0bbd f104 94bd b2e9 3fbd
00000270: 196e ae3b 43fe 89bd 61ef 6abd 57ff 473c
00000280: 0e0c 473d a2ef 76bd dd4d 36bd d473 6c3b
00000290: b773 46bd e7cb 91bd 78e9 2e3b 4a1a 9bbd
000002a0: 2ba6 52bc aae1 46bd b093 0e3c 5cd9 7cbc
000002b0: d071 563d 4ddd 44bd 8244 483d 6942 93bd
000002c0: c867 e6bb fc19 41bc 332d 97bd 012c d03b
000002d0: 79b6 e8ba 1788 6a3d 174c 893c 5e11 693b
000002e0: f27d a9bd 25ba 7ebd 5e1f 75bb 8364 6a3d
000002f0: 3fac adbd 13bd 8cbd 64ac 9ebb ecbd 90bd
00000300: e2ef 0e3c 1068 6abd dbdc 4c3c e166 9b3d
00000310: 4621 dbbd 3321 c7bc 345f 13bd 071e 34bd
00000320: e1e5 e2bb 79c6 18ba bbc8 0c3c 2846 48bd
00000330: c474 c03c 4ed0 e6bc ff42 8fbd 8d0a c13c
00000340: b6d9 50bd 196d 993c 7dca 95bc ac6f ce3c
00000350: e41f 533d 4dda bc3d a3c0 f8ba c2be 08bd
00000360: eddc 603d 5bf9 ed3b 442f 45bd a340 73bd
00000370: f790 20bc 451c ac3c a17a 873d 5a4c b8bc
00000380: bfc6 543d f5be c7bd 49e2 913d 7404 4f3d
00000390: 944c 7d3c 9d31 b73d 47bd 8bb9 0ecc 74bd
000003a0: 017c 84bd 5b91 80bd a507 5dbd 4c5f 303d
000003b0: ceec 233d cd08 cbbb 9bf0 173d 55b8 403d
000003c0: 4aad 9f3d ae69 653c 54ff f5bc fa9e e93c
000003d0: 00c6 00bd d146 4ebc eebc 68bc 30a1 da3c
000003e0: aef8 823d 3855 80bd ed3e c3bc 886c fcbc
000003f0: 8fed 183b d6c9 8c3d 6360 11bc 3be9 6abd
-0.039076388 -0.08802295 -0.04070206 0.09965927 0.0025150718 0.080066584 0.06576997 0.05273802
-0.09936116 0.025328286 -0.024260296 -0.058818124 -0.024981473 -0.045325704 -0.088051125 0.06681023
0.073644504 -0.07172971 0.004377945 -0.026036017 -0.06416773 -0.05331124 -0.1109253 0.046947602
-0.053338174 -0.024764702 0.01375912 -0.04080716 0.04918323 -0.069902584 -0.05161698 -0.07910705
-0.063502006 -0.058398318 -0.01784303 0.04836084 -0.017944321 0.07851199 0.044830732 -0.077812664
-0.03254507 -0.009275001 0.09720989 -0.034323417 0.048332896 -0.04742379 -0.026753783 -0.041442733
-0.06396516 0.082693055 -0.02537853 0.04471412 -0.010879817 0.051348686 0.042237774 -0.07643465
-0.073427804 -0.034102958 -0.0869948 -0.048559513 0.035072245 0.037950654 -0.04085457 0.106396385
-0.0035311086 -0.030396579 0.044333152 0.036463745 0.09595192 0.05924199 -0.014162739 0.028359203
0.025649507 0.013166722 -0.05112106 -0.075625055 -0.02062904 -0.005590463 0.015877375 0.025765358
0.0011483658 0.007779545 0.055886894 -0.024001319 0.10990956 -0.11551761 0.0037996843 0.05571758
-0.04348454 0.12141877 -0.033447597 -0.006501224 0.03893154 0.09378453 0.006162131 -0.12084761
-0.07119274 0.07782365 0.05969142 -5.1054634e-05 0.09434877 0.0031907938 0.031234898 -0.050707255
0.043750804 -0.047860745 -0.0523305 0.0022491748 0.0012072846 -0.05305231 -0.058695357 -0.10805384
-0.06689323 -0.05505287 -0.021568058 0.08646673 -0.040460233 0.04232113 0.020395102 -0.07292469
-0.012219048 0.06737947 -0.046839345 0.0438629 -0.013742299 0.07498697 -0.04341325 0.011431982
-0.060209952 -0.051922366 0.05079968 -0.016997706 -0.0036622675 -0.049756315 -0.055261333 -0.04535347
0.008704678 0.018888883 -0.058015246 -0.07520873 -0.03807292 0.02453862 0.016668634 0.06224994
-0.031159997 -0.038131513 -0.07427522 -0.027809097 0.017557144 0.055032562 0.007870497 0.016961304
-0.032525316 -0.034082368 -0.07227505 -0.04685373 0.0053231833 -0.0673795 -0.057357196 0.012206874
0.04859548 -0.060287125 -0.04450785 0.003607978 -0.048450198 -0.071189694 0.0026689451 -0.075733736
-0.012857 -0.048555054 0.008702204 -0.015432682 0.052354634 -0.04806261 0.04889346 -0.07190401
-0.0070314147 -0.01178598 -0.07381668 0.006352902 -0.0017754576 0.05725869 0.016759915 0.003556333
-0.08275975 -0.06218924 -0.003740273 0.05722476 -0.08480119 -0.068720005 -0.004842328 -0.07067475
0.008724185 -0.057228148 0.012503828 0.07587982 -0.10699706 -0.024307823 -0.035979465 -0.04397395
-0.0069243764 -0.00058279146 0.00859278 -0.04889503 0.023493178 -0.0281755 -0.069952 0.023564601
-0.050988875 0.01872878 -0.01828503 0.025199734 0.051544085 0.09221325 -0.0018978309 -0.033385046
0.05489819 0.0072623915 -0.04814078 -0.059387814 -0.009800187 0.021009574 0.066151865 -0.022497345
0.05194735 -0.09753219 0.071232386 0.050541356 0.015460152 0.0894501 -0.0002665317 -0.059764914
-0.06468964 -0.06277724 -0.05396237 0.043059632 0.040020756 -0.0061961175 0.037094694 0.047050793
0.07796724 0.014002247 -0.030028977 0.028518189 -0.031438828 -0.012590126 -0.014205201 0.026688188
0.06395088 -0.06266254 -0.023833716 -0.03081347 0.0023334955 0.06874435 -0.008873078 -0.057351332

lstm.bias_ih_l0 f4 [512]
00000000: a94c dc3d ae0e 3dbd a31b a33d 69d6 27bd
00000010: 3fe4 693d 31a0 e9bc 345c 45bd 28ff 433d
00000020: 1a34 643c 1f49 efbc 58ff 4f3d d761 a13d
00000030: dc3e 11bd 2532 9abd a47c 97bd aac5 a5bd
00000040: 498d 1c3c 6b92 463d 3682 fdbb e46f 95bd
00000050: 5040 1ebd 03f8 db3d 5621 96bc fb65 23bd
00000060: 3141 28bd 75b8 b83b 60f4 a8bc 8ebc 19bd
00000070: 1a52 983d 22b2 873d b6fb 6bbd de1c 823d
00000080: 9b37 343d 006c 0d3c a8a5 913d 728e 06bd
00000090: 1585 4bbd d368 a73d fd9b 23bd 2cdc 1b3c
000000a0: 6676 bebc 7f55 6abd 2b77 a53d 1eae 21bd
000000b0: acaa c03d 281a 6dbd 676a 9bbd 9cff 76bd
000000c0: 37a8 63bd 7b69 813c bf01 183d 7632 b63d
000000d0: 5ec4 2fbd a3a0 3d3c 6b37 68bd 83d0 ac3d
000000e0: 270e fb3c 0b6f 1fbd 94dd 513c ac3c ccbc
000000f0: f6a6 9a3d 3a48 3bbc f258 84bc 49dc 39bd
00000100: 4ee7 943d 26b9 7c3c 9aed 03bd 5ee3 87bd
00000110: 9432 4bbd 09f8 51bc 1d71 ef3a e33c 1c3d
00000120: 643f eebc b4fa b23d 63e8 46bd 2b6c 473d
00000130: f1d0 7d3d 0f57 513c d565 b63d c4ad 3c3d
00000140: 2fc1 59bd 453c ee3b a851 cb3c 036d 51bd
00000150: b9fa 13bd 38a1 003c 3ece 0e3d 7d9e 1a3c
00000160: 21cf ad3d e6fb d6bc 8d61 0e3c 133f a33c
00000170: b646 91bd 4cfe aebd fd7b c13d 34aa 193d
00000180: 0c7b a03d ba98 803d 02e1 67bd 88a8 193c
00000190: 8dd9 8cbc a5b6 a73d 20c4 363d 267e 59bd
000001a0: 7afa 903d f919 21bc aa1b c23c a03a a4bc
000001b0: 5172 903b 1158 6a3d b964 903d af58 293d
000001c0: fcf7 89bd 26b1 8e3d fe95 7fbd 7053 5e3d
000001d0: 6fb5 9f3d 2808 96bd 4eb2 163c 95b4 603c
000001e0: ba50 d7bc 336a 1a3d 3e6d 903d 869e 3a3d
000001f0: f51f 423c 1b2b 4dbd e594 67bd 93cf 973d
00000200: ba95 1ebd f6bb fb3c 0095 dd3c 1d73 62bd
00000210: e039 ea3c 2d9c fc3c 4d4b a13c 6fcc 343b
00000220: b95f 7e3d fa5b 03bd 4e2a 463d 8783 b33c
00000230: 5f5f 7f3d ee53 d63c f2d5 0d3c 2fb9 be3c
00000240: 3a9d a3bd 9852 203c 464f 823d de19 d5bc
00000250: 5866 053d b6d6 493d 62b1 8ebd 3402 ed3c
00000260: 2f63 163d e697 c03d 374a ad3d fc97 d73d
00000270: 1614 cc3d e6f8 9f3d 432d 843d 158d 3f3d
00000280: 0237 6939 50a2 903d 5164 47bd dc33 9c3d
00000290: 38db 783d 493d 483c 7e1a 2ebd 2be3 af3d
000002a0: ef19 933b 33a1 663d 89a8 363b 4e40 333b
000002b0: 75d1 cb3d bbf6 1e3d 6885 81bd d279 913d
000002c0: 0d16 40bd 5e3f f53d 06da 153d f586 56bd
000002d0: 7a0a 553c 3d5e 28bc 6d67 6f3d 51a9 93bc
000002e0: 3ae6 d83c 650c 803c d404 e83d 620a 1ebd
000002f0: 4c0e aebc a89a d23b 563b be3d 56d7 bf3d
00000300: 74b9 5e3c 402b e23c 3d20 7cbc 3d20 4cbd
00000310: ae4b 18bd 2466 133c de12 7ebc 621e d93d
00000320: a0e2 b0bd 36cc cb3d 7de1 26bd a473 4fbd
00000330: 22f9 053c 4e58 893d 1dbb 9dbd 917a 8ebd
00000340: d1ff 79bc 0715 203d b7af 8f3d 4f60 893c
00000350: bf4c 733d 7703 e73d 4abf 053d 0659 8abd
00000360: be4b 943d 8f73 3cbd f64d 8f3d 0def 783d
00000370: e70d ecbb 300a 4ebd 7b85 42bd 8488 c53a
00000380: b574 873d 1509 343d 0e18 a33d 5d2b e13b
00000390: 0c8b 183d 6845 073b ea7f 483d a030 f3bb
000003a0: 705c 423c dc39 803d e266 833c 227b d63c
000003b0: 6049 db3d 0431 483b 6c14 36bc e7c7 903c
000003c0: b82c 423d 6b00 983d 3361 e0bd c9b9 bb3c
000003d0: 88e5 a73c 7059 753c b85d 2cbd 0b2b 93bd
000003e0: 27d3 aa3c 7fec b63d 6326 11bd db9c 87bc
000003f0: eb81 34bd ec40 b73d 0642 c33c b115 9fbc
0.10756809 -0.046156578 0.07964256 -0.04097596 0.057102438 -0.028518768 -0.048183635 0.047850758
0.013928438 -0.029209672 0.050780624 0.078799896 -0.035460338 -0.075290956 -0.0739682 -0.08094342
0.009555169 0.04847948 -0.0077364696 -0.07296732 -0.038635552 0.10740664 -0.018326443 -0.039892178
-0.041077796 0.0056372234 -0.02062434 -0.037533335 0.07437535 0.06625773 -0.057613097 0.06353162
0.043998342 0.008631706 0.071116745 -0.03285069 -0.049687464 0.081742905 -0.039943684 0.009512942
-0.023249816 -0.05721044 0.0807937 -0.03947269 0.09407553 -0.057886273 -0.07588654 -0.06030236
-0.055580344 0.015797367 0.03711104 0.088963434 -0.04291188 0.011573943 -0.056693476 0.08438208
0.030646397 -0.03892426 0.012809176 -0.024931274 0.075513765 -0.011430794 -0.016155694 -0.045376096
0.0727068 0.015425002 -0.032209016 -0.06635164 -0.049608782 -0.012815484 0.0018267963 0.038144004
-0.029082961 0.08739224 -0.048561465 0.04868714 0.06196684 0.012777104 0.08906142 0.046064153
-0.05316275 0.0072703683 0.02481921 -0.051129352 -0.03612778 0.007850938 0.034864657 0.009437201
0.08486772 -0.026243161 0.00869025 0.019927537 -0.07093565 -0.08544597 0.09447477 0.037515834
0.07835969 0.0627913 -0.05661107 0.00937856 -0.01719358 0.081891336 0.044620633 -0.05309882
0.070790246 -0.0098328525 0.023694832 -0.020047486 0.004408159 0.057212893 0.07050461 0.04134434
-0.067367524 0.06967382 -0.062398903 0.05427879 0.077982776 -0.073257744 0.009197785 0.013714929
-0.02628361 0.037698936 0.07052086 0.045561336 0.011848439 -0.050089937 -0.05653848 0.074126385
-0.03871701 0.030729275 0.027048588 -0.05528556 0.02859205 0.03083619 0.019689227 0.0027587672
0.062103007 -0.032070138 0.04838019 0.021913303 0.062346812 0.026163068 0.008656966 0.023281662
-0.07988973 0.009785317 0.063627765 -0.026013311 0.032568306 0.04927703 -0.06967427 0.028931715
0.036715683 0.09403972 0.08461421 0.105270356 0.099647686 0.078111455 0.064539455 0.046765406
0.00022241104 0.07062209 -0.048679654 0.07627079 0.06075594 0.012221643 -0.042505734 0.08588251
0.0044891755 0.056306075 0.002787145 0.002735156 0.0995206 0.03880952 -0.06324273 0.071033135
-0.04689603 0.11974977 0.036584876 -0.0523748 0.013002986 -0.010276374 0.058448244 -0.018025072
0.026476968 0.01563091 0.11329046 -0.03858412 -0.021247052 0.006427128 0.09288661 0.09367244
0.01359402 0.027608514 -0.015388546 -0.049835432 -0.03718155 0.00899652 -0.015507428 0.10601498
-0.08636975 0.099510595 -0.040742386 -0.050647393 0.008177074 0.06706296 -0.07701705 -0.069569714
-0.015258745 0.039082553 0.07015937 0.016769556 0.059399363 0.11279958 0.03265313 -0.06755261
0.07241009 -0.046008643 0.06997292 0.06077485 -0.0072038057 -0.050302684 -0.04749058 0.0015070592
0.06614057 0.043953974 0.079635724 0.0068716244 0.03724198 0.0020640735 0.048950113 -0.007421568
0.011862859 0.06261036 0.01604027 0.026181761 0.107073545 0.0030546794 -0.011113267 0.017673446
0.04740593 0.07421955 -0.10956039 0.022915738 0.020495191 0.014974937 -0.042081565 -0.07185944
0.020852638 0.08931827 -0.035437 -0.016554287 -0.044069212 0.0894793 0.023835193 -0.019419523

lstm.bias_hh_l0 f4 [512]
00000000: ce6c 933d fe07 a9bd 12b7 d03c c91f 2dbd
00000010: 0948 8d3d 2bfd aebb fd82 8cbc 530b a13d
00000020: 21c5 70bd 9c8f ae3d d8c3 c93d 5008 8e3c
00000030: 1f6b 61bd ed99 ac3d cfdf 97bd 3ee3 0abd
00000040: b079 8cbc 88b8 813d 3980 a43d 0c51 843d
00000050: 04d1 debc 9796 d63d adaf 2ebd 6932 90bd
00000060: 50ac f63b 3b8e 58bc 4e80 3c3d aa60 92bd
00000070: 570c f43c 179f 173c 9673 79bd d6b5 67bd
00000080: e673 0bbc 7ff0 803d ad5e 823d 7fbc 853c
00000090: ea9e f4bc baca 813c 9600 93bc 8bc5 c33d
000000a0: cb5a 8bbd ba39 87b9 a9a0 9a3d fe0b 603d
000000b0: 28da b53c 07d9 b63d 2a1b 44bd c1b3 8dbd
000000c0: 46c3 dcbb 777b febc 6f8f 43bd f5df 9c3d
000000d0: a72b f13c eddb 88bc 89bd d53c 888d 993d
000000e0: 846d 75bc 67f1 84bd 04d6 e63d a9fb e9bc
000000f0: 7170 073b 5583 c03b b870 e63d 9e6d c1bb
00000100: 8619 6ebd b3de a2bd a91b 8abc 9cfc 4dbd
00000110: 4477 253c e279 273d 32ec 2bbd bc7e 95bb
00000120: b8fa 94bd e822 21bc 2098 61bb 3316 ee3d
00000130: 8b03 b33c 5d57 d8bc b6be 5cbd f764 463c
00000140: dc1f 94bc e5f2 923d b9d5 963d eaeb d2bc
00000150: dbca 40bd 4ba4 cb3d c871 993d 9bc1 d1bb
00000160: f303 49bd 33e2 af3d cb9e 2d3d 5194 bf3d
00000170: de3b a1bd 1052 b2bd 4d28 213d 21b6 c13d
00000180: 25f0 3abd aa58 173d a924 7b3d d638 9c3d
00000190: 244b 453d 7915 573d 5f10 5e3d 1d48 c53d
000001a0: 830f 88bc c5bc 023d f98f 4b3d d936 123d
000001b0: ce73 753d c849 af3d 94b7 b53d ec0e 4cbd
000001c0: 0ac4 68bc b40d 7dbd 7bab 4dbb a47c bf3d
000001d0: 4f89 6bbd 71af a6bd f377 15bd 4ab4 7abd
000001e0: 0a54 da3d 79a5 acbc d71a 4fbd 48fb dc3d
000001f0: a442 753d 3cd8 453b 0479 cbbc 2985 b23d
00000200: e428 2ebc c550 b8bd e1a3 8f3c 7980 993c
00000210: 6f63 213c 3f61 523d d224 773d 9a5b 7cbd
00000220: 6cec c73d 0170 e73c cb08 393d e2d6 03bd
00000230: 6ae6 463b 9e30 03bb 5230 9cbd 6494 653d
00000240: 5ed5 133d 914b 86bd c6b4 01bd 5c49 153d
00000250: 2a55 92bd dd00 c73d 94de 003d 9531 94bd
00000260: d3cd 3e3c 2d58 b73d 990b bf3d b0d4 173d
00000270: 8ded 293d 8f8a 9c3d 36a0 5bbd edb0 f63b
00000280: f58b b93d 1b28 c63d 17ef 5ebd 350f 0abd
00000290: 4064 c0bc 1f8a 33bd 724c a23d 0c8a 4abd
000002a0: d2ad d73c 82f3 90bb 2413 9e3d f099 c23d
000002b0: 93c2 c73d 58a6 81bd e7ec 223b fba4 5cbd
000002c0: 4b2a 983d 27b8 593c 390e 6c3d 6bed bb3c
000002d0: a467 4ebd 9f64 413d 7063 48bd 6265 15bc
000002e0: 84b7 87bc 1a85 a43d a8ca c93d a227 e9bc
000002f0: 5c5f 20bd fe86 59bd 4423 2d3c c843 f63d
00000300: 4d47 b6bb 72c4 4d3c d4f7 9fbd 6fdb 193d
00000310: 96d8 f93c f28d d8bb b412 1a3d 92a8 1c3d
00000320: f01e 863d 8b3c e33b a6a6 8ebb 8a29 723d
00000330: 3c44 b43d c33d 523c c883 8fbd 7ada 373d
00000340: 04f2 80bd d346 683d 9be3 96bc d80a 963d
00000350: 3728 cd3d a558 6a3d f7c9 063d 7357 07bd
00000360: 91a1 1f3d a892 22bd f66f 333d a70a 6cbd
00000370: e180 503c 705a 313d e629 38bd 5a17 593d
00000380: 1a1c 46bd 9392 b3bd 087c ddbc fa12 ad3d
00000390: 368f 963d 0bde 973c 0c14 893c 6b73 04bc
000003a0: 4ce0 e6bc 0b4e 0d3c 0a20 8d3d ac8e 113c
000003b0: 1324 a9bc bf13 d13d 066e 5abd aef4 60bd
000003c0: 5709 b6bd c492 543d a8b1 9e3c 6d29 9b3d
000003d0: 3b31 94bd b7d6 c1bb e75c 1fbd 3719 1dbd
000003e0: 5ef4 203d cffb 5a3d 8cdc df3c 118f 0c3d
000003f0: a3a1 253d 9830 303d a2fa 0b3d 76f7 e5bb
0.07198487 -0.082534775 0.02547792 -0.04226664 0.06898505 -0.0053402386 -0.017152304 0.07863488
-0.058781747 0.08523485 0.09851807 0.017337948 -0.0550338 0.084277965 -0.07415735 -0.03390812
-0.017147869 0.06334025 0.08032269 0.06460771 -0.027199276 0.104779415 -0.042648006 -0.07040865
0.0075278655 -0.013217504 0.0460208 -0.071473435 0.02979104 0.009254239 -0.060901247 -0.056569897
-0.008511519 0.06295871 0.06365714 0.016325234 -0.029860932 0.015843738 -0.017944615 0.09559163
-0.06804427 -0.00025792216 0.07550175 0.054698937 0.022198752 0.089281134 -0.04787747 -0.06919051
-0.0067371456 -0.031064732 -0.04774421 0.07659904 0.02943976 -0.016706431 0.026091354 0.07497698
-0.014979724 -0.06491356 0.11271289 -0.028562384 0.0020666386 0.005875031 0.11251968 -0.00590296
-0.05812981 -0.07952633 -0.016858893 -0.050289735 0.010099236 0.04088772 -0.0419733 -0.004562227
-0.07274383 -0.009834982 -0.003442295 0.11625328 0.021852275 -0.026408846 -0.053892814 0.012109033
-0.018081598 0.07175235 0.07364983 -0.025747258 -0.047068458 0.09943446 0.07492405 -0.0064012534
-0.049076032 0.08588066 0.042387765 0.09354461 -0.07872747 -0.087070584 0.039345074 0.094585665
-0.045639176 0.03694979 0.06131426 0.07628028 0.048167363 0.052510712 0.05421483 0.09632895
-0.016608959 0.031918306 0.04969785 0.035696838 0.059924893 0.085589945 0.088729054 -0.049818918
-0.014206896 -0.061780646 -0.0031382728 0.09349945 -0.057503995 -0.081389315 -0.036491346 -0.061207093
0.106605604 -0.021074997 -0.050562706 0.107901156 0.059878007 0.00301887 -0.024837978 0.087168045
-0.010629866 -0.089997806 0.017534198 0.018738018 0.009850367 0.051362272 0.06033785 -0.061610796
0.09761891 0.02825165 0.0451744 -0.03218735 0.003034974 -0.0020017992 -0.07626404 0.05604972
0.036092155 -0.06557382 -0.03166654 0.036446914 -0.0714515 0.097169615 0.031462267 -0.072360195
0.011645752 0.08952365 0.09328384 0.03706807 0.04148631 0.076436155 -0.053619586 0.0075284154
0.09059898 0.09675618 -0.054427233 -0.03370591 -0.023485303 -0.043832894 0.07924737 -0.049448058
0.026328001 -0.0044235596 0.077184945 0.095020175 0.09753909 -0.06330556 0.0024860443 -0.053868275
0.07429942 0.013288534 0.05763075 0.022940358 -0.05039181 0.0472151 -0.048922956 -0.00911841
-0.016567 0.080331996 0.09853107 -0.028461281 -0.03915344 -0.053107254 0.01056749 0.12024647
-0.005562699 0.012559043 -0.07810941 0.037562784 0.030498784 -0.006608718 0.037615493 0.0382467
0.065488696 0.0069347075 -0.004353362 0.059121646 0.08802077 0.012832108 -0.07007557 0.04488609
-0.06296161 0.05670817 -0.018419078 0.07326287 0.10017436 0.057213444 0.032907452 -0.033042382
0.03897244 -0.039690644 0.043807946 -0.057627346 0.01272604 0.04329914 -0.044961832 0.053000785
-0.048366643 -0.08768191 -0.027036682 0.08450885 0.07351534 0.018538496 0.016733192 -0.008084158
-0.028183125 0.008624564 0.068908766 0.008884113 -0.020647084 0.102088444 -0.053327583 -0.054920845
-0.088885 0.05189778 0.019371822 0.07576261 -0.072359525 -0.0059154886 -0.038906958 -0.038354125
0.039295547 0.0534628 0.027326845 0.034316126 0.040437352 0.043015093 0.03417457 -0.007018025

lstm.weight_ih_l0_reverse f4 [512, 4]
00000000: 9c35 63bc f4bd 13bd 0019 0bbd cdbf b5bd
00000010: 6f31 263c 20e9 0d3d 3bb5 0f3d e9dd 8abd
00000020: b195 c73c 5a38 ea3c 68f7 a03c 80a9 463d
00000030: c294 33bd 0dcd cdbc fdf6 743d fb06 87bb
00000040: c919 bf3c b2f9 8a3d 9097 e6bc 976e f3bd
00000050: 50cc 70bd e6c3 873b 130b acbd 13cc 52bd
00000060: a918 1bbe e1d9 13be f605 15be 66fe cfbd
00000070: 9491 5ebd f782 2dbd f462 aebc ca58 02bc
00000080: ec11 d8bc 7ff9 f9ba 98d0 b63c 875c e2bc
00000090: cf4e 5f3d d2ab a93d 42ac 96bd 3b63 463c
000000a0: 03cc b3bc 9ba0 91bc 3b27 babd 499a c9bd
000000b0: 4d08 793d f4bd a73c 2c78 9dbd a7dc 1dbe
000000c0: 701d 8b3d fb40 87bd 1818 313b 8b11 4dbd
000000d0: 6fdd 873d 13ee c539 ebc4 9f3d df83 023d
000000e0: ded6 ab3c 0e7d 38bd 43d5 00bd 2c6a 22be
000000f0: 32e7 603c 8705 ac3d e2d2 27bc 86c8 d3bd
00000100: 0845 08bd 388d 833d dd5b 893d 549a acbd
00000110: 70ac 933c 534b 88bd 8bb6 abbd fb90 f33b
00000120: 2f96 ab3b b8e5 083d 537c 1c3c f7fa a6bd
00000130: 2782 973d 7063 643d 9168 5dbd 7449 dbbd
00000140: 1514 583d e4c9 b4bd 54d6 a1bd d7eb 30bd
00000150: eaf0 e93b e2f1 153c 32da 1dbd dac6 acbc
00000160: 9be4 573c afb0 533b 16de f8bb 9a0e 8abd
00000170: 5f31 46bd 4650 a9bd 651c eabb cecd 57bd
00000180: ff51 953d 1aee a23d d8dc 9dbd 93fc e8bd
00000190: 2bf4 8f3d c309 373c 0de1 1c3b a357 7fbd
000001a0: 48c2 8f3d bbba 383b 38eb e63d 9c26 37bd
000001b0: 08ed 98bd be91 ccbd f932 82bd bc0f 30be
000001c0: c598 9bbc 5f3e edbd 579d 9d3c 2d91 6cbd
000001d0: cc79 9dbd 2181 e6bc 097b 4dbd d0fc 06be
000001e0: 635c c43d 6691 513b 57af c73d 96cf 4bbd
000001f0: ffd1 bd3d b4f6 f3bc afd1 d93c eba5 583d
00000200: d0bc 39bd 1aff 783c d93b 81bc 6138 bebd
00000210: b531 f43d 5527 d03c 1423 c23d c75a 77bd
00000220: cb63 d73c 387d a13d 1e8a f03d 61b1 8bbc
00000230: 5c68 82bd cdee 0b3d 2eb0 8abc 837e 50bd
00000240: f48d cdbd 5f3c d5bd 2e30 ebbc dcc4 e0bb
00000250: 729b e43d 062a 56bd 3640 80bc 98dd b73d
00000260: 2ae1 f03d cb1b a13d 0cca b23d 9efb 883c
00000270: 0998 833d 003a c13c 7834 a23d 617e 8fbd
00000280: c442 db3b 68db eb3c 22da bd3d 7a5f 763c
00000290: 7b2a ee3d 9184 d7bc 2ea3 1ebb dac4 803c
000002a0: a3da d63c a069 88bd 7737 cc3d ff7c 34be
000002b0: cc50 bdbd 8ae4 c5bd 093e a4bd c584 72bd
000002c0: 6b70 f13d 2406 473d 1414 0d3e 3b22 613c
000002d0: ce79 04bd fec8 0ebd acee 983d ef3b babd
000002e0: 32ff febc a773 fb3c 2d8f 813d ae40 aabd
000002f0: daf6 d43d b95a b43c 76c2 1a3a a0c3 213d
00000300: 7be7 0bbd 890f 333d 80ac 1b3d 1e96 15bc
00000310: 7d90 803d 7540 fe3c 8f23 6fbd 469f b2bd
00000320: 721d 3cbd 5ae9 a53d 3d9e b43d c671 f1bd
00000330: 80e9 6abd 5e52 b5bd 4174 d6bd fdbd 08be
00000340: d20c 79bb 28ae 85bb ba79 a13c f7ba c03c
00000350: d45d 483d b03d 863d a1ce 463d d396 b33d
00000360: c8b8 b63c 8e21 cc3c 03a0 623d e204 c43d
00000370: efcf 113d be5d 50bc 6233 0b3e d6e1 2cbd
00000380: 5e22 273d 5b4e 443d 0204 98bd f086 f8bd
00000390: 17a2 3fbd cd11 99bc 75c4 00bc 2770 a4bd
000003a0: c74e 843c 0283 083d 97bf 7f3c fb0d 423d
000003b0: bae7 e8bc 9b1b 34bd 9eab a63d 50f9 a5bd
000003c0: 11fe 193d bc39 57bd 0ba0 8bbd d738 42bd
000003d0: cc8f 6fbb fba3 b5bd 0614 bbbc 7356 f1bd
000003e0: 23d1 82bd 9893 4f3d b287 58bd cac5 003b
000003f0: cba0 513d 6b9d 213d 44f9 00bd 86c5 653c
-0.013867762 -0.036069825 -0.03395939 -0.08874474 0.010143622 0.034646153 0.035084944 -0.06780607
0.02436337 0.028591324 0.019649222 0.04850149 -0.04384304 -0.02512219 0.05980586 -0.004120705
0.023327725 0.06785907 -0.028148443 -0.11886328 -0.058788598 0.004143226 -0.0840055 -0.05146415
-0.15146126 -0.14438583 -0.14553055 -0.101559445 -0.054338053 -0.042361226 -0.021287419 -0.007955739
-0.026375733 -0.0019071548 0.022316262 -0.027632011 0.054518517 0.08284725 -0.07357074 0.012108619
-0.021947866 -0.017776778 -0.09089514 -0.09843881 0.060798932 0.020476319 -0.076889366 -0.15416203
0.06792724 -0.06604191 0.0027022418 -0.05006556 0.06634032 0.00037752147 0.07801231 0.031864043
0.02097648 -0.045041136 -0.031453382 -0.15860814 0.013726996 0.08399492 -0.0102431495 -0.10340981
-0.03326896 0.0642342 0.06706975 -0.08427873 0.01802656 -0.06654992 -0.08384427 0.0074330545
0.005236409 0.033422202 0.009551126 -0.081533365 0.073978715 0.055758893 -0.0540548 -0.107073694
0.052753527 -0.0882757 -0.07902208 -0.043193664 0.007139315 0.009151908 -0.038538165 -0.021090914
0.013177062 0.0032301357 -0.007594834 -0.06741066 -0.048386928 -0.08267264 -0.007144498 -0.052686505
0.0729103 0.079555705 -0.07708138 -0.113763 0.07028993 0.011171761 0.0023937852 -0.062339436
0.07019478 0.0028187472 0.11275333 -0.044714555 -0.07467085 -0.099887356 -0.063573785 -0.17193502
-0.018993745 -0.11584162 0.019240065 -0.057755638 -0.076892465 -0.028137745 -0.050166164 -0.13182378
0.09587934 0.0031977533 0.0975024 -0.049758516 0.09268569 -0.029780723 0.026589243 0.052892607
-0.04534608 0.01519754 -0.015775608 -0.09288097 0.11923543 0.02540938 0.09479347 -0.060389306
0.026292702 0.07885212 0.11745094 -0.017052354 -0.06367561 0.034163285 -0.016929712 -0.0509019
-0.10036841 -0.104119055 -0.028709497 -0.006859405 0.11162461 -0.05228617 -0.015655618 0.089778125
0.11761697 0.07866629 0.08729944 0.016721543 0.06425483 0.023587227 0.07920164 -0.07006527
0.0066913087 0.028791144 0.09270121 0.015037412 0.11629196 -0.02630833 -0.002420615 0.015718866
0.026227301 -0.06660771 0.099715166 -0.17625807 -0.092439264 -0.09662731 -0.08019645 -0.05920865
0.1178902 0.04858984 0.1377719 0.013741071 -0.032342725 -0.03485965 0.07467398 -0.09093463
-0.031127546 0.030694796 0.06326137 -0.08313118 0.10398646 0.022015916 0.0005903611 0.039493203
-0.034156304 0.043715987 0.038006306 -0.009130029 0.06277559 0.031036595 -0.05838352 -0.08721785
-0.04592652 0.08101149 0.08819244 -0.11789279 -0.05735159 -0.08853601 -0.104713924 -0.13353725
-0.0038002026 -0.004079599 0.019711364 0.023526652 0.048917606 0.06554735 0.0485369 0.08769002
0.022304907 0.024918344 0.05532838 0.09571244 0.03559869 -0.012717662 0.1359382 -0.04220756
0.04080426 0.047926288 -0.074226394 -0.12135112 -0.04678544 -0.018685246 -0.007859339 -0.08029204
0.016150845 0.033328064 0.015609643 0.047376614 -0.028430808 -0.04397164 0.08138202 -0.08104193
0.037595812 -0.052545294 -0.06817635 -0.047417488 -0.0036554215 -0.088691674 -0.022836696 -0.11784067
-0.06387546 0.050677866 -0.052863784 0.0019649141 0.051178735 0.039456766 -0.03148772 0.014024144

lstm.weight_hh_l0_reverse f4 [512, 128]
00000000: 61d3 083e d9ca a6bb 3c7d a7bd ded0 80bd
00000010: 2880 2d3d c4a8 e8bc 60e1 b3bd 3f7a bf3d
00000020: 7800 bdbd 550e 243d 2e79 1cbd 0f21 3c3d
00000030: b0a1 edbc a5f3 e7ba 2879 cc3d 095d 0fbd
00000040: 3c85 dcbd b323 123d e652 02bd e2b3 a0bd
00000050: 66ca 29bd c647 c93d d52f febb 38b9 c4bd
00000060: 6288 c9bc 67d4 8bbd ee57 cabb 9941 153d
00000070: de4a 43bd f2f0 78bc 44b4 853c 1add c73d
00000080: 76b1 803d 4778 143c 9d1f 933c c63a 9bbd
00000090: b9b9 0c3d 528b 8a3d d0fe 5ebb c11a 0d3d
000000a0: 15f4 8abd 7f86 263d a8f4 74bd 7fb2 dfb9
000000b0: 7e97 d9bc edb2 a43d 0c55 16bd 15a0 603b
000000c0: c656 f9ba d03d a03d c2c3 673c f8c0 d13d
000000d0: d63f a03d 5508 4abd 4a00 92bc 8243 1cbd
000000e0: 21b9 da3d 3459 433d e277 d43d 4c3c d9bc
000000f0: b714 873c 9e0e 49bb f0b1 9e3d 2531 06bd
00000100: 8c0c 2c3d a306 d13c 08c3 b13d 21f5 8dbd
00000110: f6cc 893d 8673 66bc 24c9 9d3d 3cdd cc3c
00000120: e1fe 6ebd 410d 15b9 7e41 9f3d f4a2 4bbd
00000130: 5a88 8a3d 02e7 753d 8ef2 bb3d d9e2 593d
00000140: 1173 103d ff00 86bd 75e4 253d b2e4 e13d
00000150: 4fd1 b1bd 918e 6b3c 87a8 e8bd 819c fd3d
00000160: 56af a1bd 9069 13bc 7a19 0b3d 7866 c33d
00000170: ee24 e6bc 3841 863d 034d 90bd 05a5 14bc
00000180: 0a37 04be e23a 01be 1cc4 0abd 1092 44bc
00000190: dd78 70bd 6339 59bd 673b a5bb abb7 483d
000001a0: 9bad 65bc 3c75 eebc e1c8 223b 0c2f 873d
000001b0: 8528 4dbc 3d43 bf3c 3dc4 0fbe 736b b5bd
000001c0: 1473 8b3d e81d 7f3c 7efe 00bc cc19 6a3d
000001d0: 58f4 71bd ce11 aebc f848 86bd d767 34bd
000001e0: fac3 b9bb fde9 4bbd 24e8 893d 7110 dabc
000001f0: 7934 733d 9064 633d 2e10 2ebb be4c 0dbd
00000200: 583f b8bc a6bf 6abd c6ca 81bd d0d9 763d
00000210: e6b1 f9bb 427c 4abd 4df6 a4bc 5327 f33c
00000220: 89b0 d0bc eff5 0abd 7f6d 6fbd 5222 573d
00000230: 8070 95bd 62a3 933d ac56 1fbd d110 9cbc
00000240: 17fe a3bc f657 2c3d 3353 1d3d 82ac 82bc
00000250: 04e4 113d b7e3 69bc 118b c7bc d103 9fbd
00000260: a939 7cbd 16b5 9f3c 4584 c23d 288a 5ebd
00000270: d422 febc be72 53bb 0e39 8c3d cb32 7b3d
00000280: 8294 01bc a6ae 16bd 9a6f d6bd 15fa a6bd
00000290: 3c66 1abd 6e67 7bbd 53fe d1bd 6934 543d
000002a0: 2dd0 19bd a0ab 38bd 1524 3bbd 9938 ee3c
000002b0: 77ad 163d 8bae 52bd 6c40 7a3d b47c bebd
000002c0: 8ccf 653c 028e c2bd 2db0 9abd 9349 23bc
000002d0: ee80 673c ec36 6abd d924 4e3d 345a 813d
000002e0: f2ed fe3c 97a3 a8bc 9544 28bd 5d9f 9f3d
000002f0: 0309 1dbd 0a4c 4abd a041 c5bd b72e 6fbd
00000300: 5802 21bc c5a7 97bd 22d2 81bd f93f 443d
00000310: 67a5 6a3c 3b2b 4a3b efde b5bb 4d8d 503d
00000320: 83e4 80bd c50f 29bd 6aef 003d fc45 68bc
00000330: c9b1 9a3d 6991 a03d 923c 49bc 317d 8fbc
00000340: 3581 a93d 63a1 22bd 0685 71bd 8853 ad3b
00000350: e9dc 5d3d c2f8 b2bb d651 073d f703 39bc
00000360: 1bc3 803d 40c6 6d3c 8f9b 123d df58 54bd
00000370: 35e9 88bd 46d6 85bd b9e1 413c b85d b63a
00000380: 8d6e 1a3c 250a 4bbd 7918 61bd a9b0 513d
00000390: 4ddd 1e3d 4f7c da3d 58a8 e93d 56f4 153c
000003a0: 3bd7 bcbc d536 8a3c 0288 ebbc b486 b9bd
000003b0: 3628 a73b 0129 02bd bff6 dabd 3717 6c3d
000003c0: 5cf4 6e3d 52b0 0fbd 28b2 6fbd c4e5 36bd
000003d0: 2375 2b3d 4744 5a3c 078f a0bb 8342 213c
000003e0: 6697 8bbd e56e 2fba e445 8cbd d432 b23c
000003f0: 72e3 5dbc 3f70 ccbd c604 cabd 8a9b 9c3d
0.13361885 -0.0050900993 -0.081781834 -0.06289838 0.042358547 -0.028400786 -0.08783221 0.093494885
-0.09228605 0.04005273 -0.038201503 0.045929965 -0.029007763 -0.0017696513 0.09984046 -0.035000835
-0.107676 0.035678577 -0.03181734 -0.0784681 -0.041452788 0.09828143 -0.007757167 -0.0960564
-0.024601165 -0.06827622 -0.006175033 0.036439512 -0.04767882 -0.015194165 0.016321309 0.09758969
0.06283848 0.0090618795 0.01795941 -0.075795695 0.034356806 0.067648545 -0.0034026392 0.034449343
-0.06784836 0.04065561 -0.059803635 -0.00042666864 -0.026561495 0.0804194 -0.0367022 0.0034275104
-0.0019023053 0.0782429 0.014145793 0.10241884 0.07824676 -0.049324352 -0.017822403 -0.038150318
0.10679842 0.047692493 0.10374428 -0.02651801 0.01648937 -0.0030678879 0.07748783 -0.03276171
0.042004153 0.02551586 0.086797774 -0.0693152 0.06728546 -0.014065629 0.0770438 0.025007837
-0.05834854 -0.00014214685 0.077761635 -0.04971595 0.06764288 0.06003476 0.09177123 0.053194854
0.035265986 -0.06543159 0.040501077 0.11029948 -0.086825006 0.014377252 -0.11360269 0.123833664
-0.07894771 -0.008997336 0.033959843 0.09541029 -0.028093781 0.06555408 -0.07045939 -0.009072547
-0.1291162 -0.12620118 -0.03387843 -0.011997715 -0.058709014 -0.053033244 -0.0050424817 0.049003284
-0.014018442 -0.029108636 0.0024838971 0.0660077 -0.012521868 0.023347491 -0.14039703 -0.08858385
0.06809059 0.015571095 -0.007873176 0.057153508 -0.059070915 -0.021248724 -0.065568864 -0.044044342
-0.005669114 -0.049783695 0.067337304 -0.026619168 0.059376214 0.055515826 -0.0026559937 -0.034497015
-0.022491142 -0.057311676 -0.06337504 0.060266316 -0.007620084 -0.049434908 -0.020136977 0.029681837
-0.025474804 -0.033925947 -0.058454033 0.052522965 -0.07296848 0.07208897 -0.038901016 -0.019050987
-0.02001862 0.042076074 0.038409423 -0.015951399 0.035617843 -0.014275483 -0.024358304 -0.077644
-0.061578427 0.019495528 0.09497885 -0.054330975 -0.031022467 -0.0032264437 0.0684682 0.061327737
-0.007908942 -0.03678765 -0.10470505 -0.08153168 -0.037695155 -0.061377935 -0.102535866 0.051807795
-0.037552048 -0.04508555 -0.045688707 0.029079722 0.036786523 -0.05143599 0.061096594 -0.09301129
0.014026534 -0.09499742 -0.07553134 -0.009966272 0.01412986 -0.057181284 0.05032811 0.06316033
0.03111932 -0.020585818 -0.04108103 0.07794068 -0.038338672 -0.049388923 -0.096316576 -0.05839416
-0.009827219 -0.074050464 -0.06338908 0.04791257 0.014321662 0.0030848521 -0.0055502574 0.050916005
-0.06293585 -0.041274805 0.031478323 -0.014176842 0.07553441 0.07840235 -0.0122825075 -0.01751575
0.082765974 -0.03970469 -0.05896475 0.0052894987 0.054165754 -0.005461783 0.03303703 -0.011292449
0.062872134 0.0145125985 0.035792883 -0.051842567 -0.06685106 -0.0653501 0.011833602 0.0013913428
0.009425771 -0.04957022 -0.05495498 0.051193867 0.038785268 0.10668241 0.11409062 0.0091524925
-0.023051849 0.01687185 -0.028751377 -0.09058896 0.005101229 -0.031777386 -0.10691594 0.057639327
0.058338508 -0.03508026 -0.058519512 -0.044652715 0.041859757 0.013321943 -0.0048998627 0.009842518
-0.06815986 -0.0006692245 -0.06849268 0.021752752 -0.013542997 -0.09982347 -0.09864192 0.07646854

lstm.bias_ih_l0_reverse f4 [512]
00000000: b4e7 4b3d 30a4 b03d baf0 1d3d 71a5 bc3d
00000010: 194c 2d3d fcba a0bc a430 d53d 9d41 7c38
00000020: ec9e 1abd 293c d63d abeb b6bc 37b8 913d
00000030: da78 0abd 9f6c 803d b63c 0e3e 866f 283d
00000040: 6382 ec3d 41be a9bc 19ef a5bc d56c 653d
00000050: a45f f23c f2e6 9b3c b62c 7c3c dbd8 9e3c
00000060: d2dd f83c bdc8 f63d f0f2 eb3d 2963 b73d
00000070: e762 34bd d8f2 1fbc cb63 823d 438f c43d
00000080: 9f3e ccbc 176c cebb d2ad 723d c51a af3d
00000090: 763a b83d 2df9 3c3d c55b 653d c3d6 643d
000000a0: e87a 213d ff1c ad3c 2e1d 703d c461 113d
000000b0: 3a78 a9bc ca38 57bb 6590 91bc 0a8a 6cbb
000000c0: 21b3 033d a238 ed3c 2bd9 873d c33b 673d
000000d0: 20dc ee3d 7e3c 24bd 4734 cd3d 03a6 893c
000000e0: a37e e03d e3f1 d23d c8a9 5c3d 6c34 e9bc
000000f0: 402e f23d fab0 053d a2df bf3d 6da8 2fbc
00000100: c176 a4bc b105 b63d d56f 883d 2c37 31bc
00000110: e927 2bbd 4974 113e 4b2a ee3c 0d5a 8f3d
00000120: 1870 d03c 8893 2cbc 1048 293b 9c82 e43d
00000130: 9796 133d 7097 a63d fa9e d63c 1fd5 f03c
00000140: fc86 873c 00ba fa3d 2be2 a8bb 59dc 583d
00000150: 0351 673d 033d c63d 2b14 c43d 2b7c 783d
00000160: 70ff 7ebb 2f17 30bc fb0a d53d b7ee a83d
00000170: cd03 f33c 5404 be3d 8985 e73d daaa bfbb
00000180: 9790 96bd c7df 6f3c 0d79 873d 44fc 803d
00000190: 79c3 e63c a840 f03d b30c d63d 55a6 aa3d
000001a0: ee1b 9b3c 7f88 2ebd 8a09 c63b b9b4 8b3d
000001b0: 1bc5 223c 1dfe 8a3d 39f7 04bd bf9c 773d
000001c0: f3b8 04bb 8152 3c3d 7ebc c83d ed31 703d
000001d0: 7b49 3ebd 0fef 853d 11e8 373d 5b71 1bbd
000001e0: 07bc a43d d437 013d 2259 25bd 3223 9c3d
000001f0: 5939 0d3d a5f9 593b 0b3b 913d d9b3 573d
00000200: 536d a23d 4674 15bd d18d 303d 3908 be3d
00000210: 8c45 c63d 523c 67bc affa b03d b312 59bd
00000220: c774 06bc e077 5fbd 62c1 44bd 651b 6b3c
00000230: 9b71 c9bc c862 593d d9c2 1d3e c2a9 243d
00000240: fd25 a63d ca10 d23c 00e7 bfbc b1eb 683c
00000250: f0e3 2f3d 8a8c f8bc 0387 523d 1a63 a53d
00000260: 6fba 283b ddd2 dd3d 0d81 593d 311d ac3d
00000270: 5d7b 8a3d 27d1 c43c d6fb 183d 6348 063d
00000280: 6ad6 bf3d f1bd b1bb 4f7f ab3d 6e88 993d
00000290: bd7c 023e 7055 0fbd f015 77bd 925d 1a3d
000002a0: 1c72 393d 0249 a53d 27d6 5bbc e26c 053c
000002b0: 28e1 d13d 1c82 a83c 99bf af3d bb9b b23d
000002c0: caab df3c 88b6 4fbd 4faf 773d 0eb8 913c
000002d0: 893e 66bc 33a3 3f3d 4bc4 ae3d 54fc c93d
000002e0: 8920 f73d cc5c 40bd 9413 8b3d a443 f23d
000002f0: 8ba1 e33d 3419 863d e3c4 863b 9cfa ee3d
00000300: 14dd 1ebd b8e3 e33d 79f0 4dbd 6c0e 973d
00000310: 67eb 14bd ed19 293d 3bc8 3d3d 1aae 44bd
00000320: 45df 8f3d 084a d23c f4f9 4c3d 5642 a5bb
00000330: 6dc0 8e3d e636 8a3d 4ef1 e73d 3a73 df3d
00000340: f0d4 87bd eedc c03d aae7 91bc 93c0 b23d
00000350: b3e4 25bd 441e bd3d 2a89 1b3c d897 873d
00000360: 357c 3e3d 5085 983d 260f e1ba 8dcc 933d
00000370: e1d7 c23c 76dc 043c 0fbd 083e 426e e03b
00000380: a9c9 40bd c891 8c3d c9cb 063c 500b 193d
00000390: 280f c23d a982 643d a179 ac3d 2e77 2f3d
000003a0: b1f7 2abd b919 213d d51b 55bd bc09 1b3e
000003b0: 6cad c43d 8fef 13bc 5cd0 ed3b 6eb0 53bd
000003c0: 8dcd 823d f8a0 ad3b 9ee4 69bc 758d 7b3d
000003d0: 8b55 51bd 4c52 2c3d 6a46 db3d ddd9 7bbb
000003e0: 2333 c5bb 5e54 c13d fae6 aeb9 2d1f df3d
000003f0: 486a 3fbd 5f39 983c 4916 063d 1800 c1bc
0.049781516 0.08625066 0.038559653 0.09211243 0.0423089 -0.019620411 0.10409668 6.014259e-05
-0.037749216 0.104606934 -0.022329172 0.07115214 -0.03380666 0.06270718 0.13890347 0.041121982
0.11548307 -0.020720603 -0.020255612 0.056011993 0.02958662 0.019031022 0.015391519 0.019390514
0.03037921 0.120500065 0.11520946 0.0895446 -0.044039633 -0.009762488 0.0636669 0.095976375
-0.024932204 -0.0062995064 0.0592478 0.08550028 0.089955255 0.04613607 0.05599572 0.055868875
0.039423853 0.02113199 0.058621578 0.035493627 -0.020687211 -0.0032840245 -0.017769048 -0.003609302
0.032153253 0.028957669 0.066332184 0.056453478 0.11663079 -0.040096752 0.10019737 0.016802793
0.10961654 0.103000425 0.053872854 -0.02846738 0.11825228 0.03263948 0.093688264 -0.010721308
-0.020076158 0.08887804 0.06661955 -0.010816377 -0.04178611 0.14204516 0.029072901 0.06999598
0.025444075 -0.010533221 0.0025830306 0.11157724 0.036032286 0.08134353 0.026198853 0.029398499
0.016543858 0.12242508 -0.0051539144 0.052944515 0.056473743 0.09679606 0.09574159 0.06066529
-0.0038909577 -0.010747715 0.10402485 0.08248656 0.029664898 0.09278169 0.11304767 -0.0058492245
-0.07351797 0.014640755 0.066148855 0.06298116 0.02816938 0.11731082 0.10451641 0.083325066
0.018934216 -0.04261064 0.0060436176 0.068215795 0.009934689 0.067867495 -0.032462332 0.06045222
-0.002025184 0.04597712 0.09801577 0.058641363 -0.046456795 0.065397374 0.04489905 -0.0379499
0.08043676 0.031547382 -0.040368207 0.076239005 0.03447852 0.0033260372 0.0709134 0.05266175
0.07931008 -0.03648784 0.043103997 0.09278912 0.09681234 -0.014113503 0.08641564 -0.05299635
-0.008206553 -0.05455768 -0.048035987 0.014349793 -0.024590304 0.05307272 0.1540636 0.040200956
0.081127144 0.025642771 -0.02342558 0.014216349 0.042941988 -0.030340452 0.05139829 0.08075543
0.0025745889 0.108312346 0.053101588 0.08404005 0.06761811 0.024025513 0.037349544 0.032783877
0.09367068 -0.005424254 0.083738916 0.07496725 0.12742896 -0.03499359 -0.060323656 0.03768689
0.04527484 0.08070566 -0.013417757 0.0081436355 0.10248023 0.020569853 0.08581466 0.087211095
0.027303595 -0.050711185 0.06046992 0.01778796 -0.0140529955 0.0467865 0.08533534 0.09862581
0.120667525 -0.046963498 0.067908436 0.11829308 0.11114796 0.06547776 0.004112826 0.11668894
-0.038785055 0.11127418 -0.05027816 0.07375798 -0.03635731 0.04128449 0.046333533 -0.0480176
0.07025007 0.025670066 0.05004306 -0.0050433083 0.06970296 0.06748752 0.11325322 0.109106496
-0.066324115 0.09417139 -0.017810661 0.08728137 -0.040501308 0.09234288 0.009493152 0.06620759
0.04650517 0.07447302 -0.0017170652 0.07216749 0.02378458 0.008109203 0.1335337 0.0068490813
-0.047067318 0.06863743 0.008227297 0.037364304 0.09475547 0.05578867 0.084216364 0.042838268
-0.041740123 0.03933117 -0.052028496 0.15140432 0.0960339 -0.009029283 0.0072575044 -0.05168193
0.06386862 0.00529873 -0.014275698 0.0614142 -0.05110697 0.042070672 0.1070679 -0.0038429417
-0.006018059 0.0943992 -0.00033359957 0.10894618 -0.046732217 0.018582044 0.032736097 -0.023559615
